model_final_new_layers.pt (torch, 63141 bytes, 7 tensors)

weight f4 [10, 1, 5, 5]
0	0x3e1424b1	0.14467122
1	0x3d830695	0.0639774
2	0x3e3b21d7	0.18274628
3	0x3da0998f	0.07841789
4	0x3db678f4	0.08909789
5	0x3e16c5c0	0.14723873
6	0x3cef55ba	0.029215682
7	0xbd152685	-0.03641369
8	0x3dcdcf82	0.100493446
9	0xbd81eb40	-0.063436985
10	0x3dc3d602	0.09562303
11	0x3d66ea3e	0.056375735
12	0x3dfdc5cc	0.123912424
13	0x3e293975	0.16525824
14	0x3e4950df	0.19659756
15	0xbe1046e7	-0.14089547
16	0xbda8643b	-0.082222424
17	0x3e1d5d46	0.15367612
18	0xbdf5e0d4	-0.12005773
19	0x3cafaec7	0.021445645
20	0x3e348d51	0.17632033
21	0x3e45d55c	0.19319671
22	0x3e4974b6	0.19673428
23	0xbc82c4b1	-0.01596293
24	0xbe3316b6	-0.17489132
25	0x3b689389	0.0035488328
26	0x3d6dd7de	0.058067195
27	0x3de15962	0.110033765
28	0xbcfebffc	-0.031097405
29	0xbd803999	-0.06260986
30	0x3dfeb050	0.12435973
31	0xbd63325f	-0.05546796
32	0x3dc5c5da	0.09656878
33	0x3e3ec47c	0.1862964
34	0xbdab6bc3	-0.08370163
35	0xbc2cfd7e	-0.010558484
36	0x3e1f1d6a	0.15538564
37	0xbe0a10f9	-0.13483037
38	0xbe3696b1	-0.17830922
39	0xbda85e41	-0.082211025
40	0xbe475f9e	-0.19470069
41	0x3ddd6956	0.10811107
42	0x3d9d47c9	0.076797076
43	0x3e284db8	0.16435897
44	0x3de97018	0.11398333
45	0xbd8994b3	-0.06717815
46	0x3e490474	0.19630605
47	0x3da1d9b4	0.07902852
48	0xbe36c102	-0.17847064
49	0xbde1430e	-0.10999118
50	0xbdd86d53	-0.10567727
51	0xbe0845de	-0.13307902
52	0x3d0a2aa9	0.03373209
53	0xbd8f7a81	-0.07005788
54	0x3e02f38a	0.12788215
55	0x3e4f37f8	0.20236194
56	0x3dec3052	0.11532654
57	0xbdb1f2ce	-0.086888894
58	0xbb2dd2ff	-0.0026523469
59	0xbd1acd76	-0.0377936
60	0x3e29aecf	0.1657059
61	0x3e2bfb7b	0.16795151
62	0xbdfea4e1	-0.12433792
63	0xbe07d034	-0.13263017
64	0x3e2c6e86	0.16839036
65	0x3cf5eba6	0.030019592
66	0x3c1a7f1c	0.009429719
67	0x3e24a23d	0.16077514
68	0xbc93529a	-0.017983723
69	0x3d7fe3b5	0.062473018
70	0x3e4ec6d5	0.20193036
71	0xbdb07539	-0.086161084
72	0xbe289f9e	-0.16467139
73	0xbd1b890e	-0.037972502
74	0x3e14d191	0.14533068
75	0xbd814fe6	-0.063140675
76	0x3e456dad	0.19280119
77	0xbde5ed53	-0.112269066
78	0xbcffca6c	-0.031224452
79	0xbe2c8f54	-0.1685155
80	0x3d4708a2	0.048592217
81	0x3e00844c	0.12550467
82	0x3e2b827d	0.16748996
83	0xbe351f32	-0.17687681
84	0xbdab7f4d	-0.0837389
85	0xbe283fc3	-0.16430573
86	0x3d982658	0.074291885
87	0xbca7cd9e	-0.020483788
88	0xbe03dbf7	-0.12876879
89	0xbdcc8080	-0.09985447
90	0x3bb89714	0.0056332443
91	0xbe12241e	-0.1427159
92	0x3d7ed32a	0.0622131
93	0xbd3da0e7	-0.046296027
94	0xbd9d4f27	-0.07681113
95	0x3e4ebfe5	0.2019039
96	0xbe161c32	-0.14659193
97	0x3e3f42bc	0.18677801
98	0x3e1b04ff	0.15138625
99	0x3e1245b8	0.14284408
100	0x3dad076c	0.08448681
101	0x3e0e7410	0.13911462
102	0xbd1bfbf5	-0.03808208
103	0xbce98c65	-0.028509328
104	0x3e38f0ab	0.18060558
105	0x3e082128	0.13293898
106	0x3dac8325	0.08423451
107	0xbd070679	-0.032965157
108	0x3dfb08d7	0.122575454
109	0xbe081618	-0.13289678
110	0x3d805d57	0.06267803
111	0xbe137154	-0.143987
112	0xbdf97e87	-0.12182336
113	0xbdaba7b9	-0.083816
114	0x3e06c653	0.13161592
115	0x3e18c7f4	0.14920026
116	0xbe416b65	-0.18888624
117	0xbc42ee32	-0.0118976105
118	0x3e07e481	0.13270761
119	0x3df811b1	0.12112749
120	0xbd417851	-0.047233883
121	0xbd25714b	-0.040391248
122	0xbdd6bd7d	-0.10485361
123	0xbe343a0c	-0.17600268
124	0xbd7a8737	-0.061164107
125	0x3e381877	0.17978083
126	0x3da10bc3	0.078635715
127	0xbded2166	-0.11578636
128	0x3e136d7e	0.14397237
129	0xbe3b9515	-0.18318589
130	0xbb4d4e8a	-0.003132733
131	0x3cf0de99	0.029403018
132	0xbd881890	-0.0664531
133	0x3cd4cab0	0.025975555
134	0x3e317fa9	0.17333855
135	0xbe047cd9	-0.1293825
136	0x3e147e34	0.14501268
137	0x3e029a10	0.12754083
138	0xbdb2660a	-0.08710869
139	0x3dfde69d	0.123975016
140	0x3e58a8f1	0.21158196
141	0x3e0c4863	0.13699488
142	0x3e4de585	0.20107086
143	0xbbf92395	-0.0076031187
144	0xbdbb9739	-0.09159703
145	0xbd878a11	-0.06618131
146	0xbda60c45	-0.08107809
147	0xbd742549	-0.05960587
148	0xbdc47c77	-0.09594052
149	0xbe7fed27	-0.2499281
150	0x3cc19f64	0.023635574
151	0xbdeb41bb	-0.114871465
152	0x3e2183af	0.1577289
153	0xbc8a29a9	-0.016865568
154	0x3e0c848b	0.13722436
155	0x3cedfe67	0.029051973
156	0x3e185241	0.14875127
157	0x3d37587f	0.04476213
158	0xbe14f86e	-0.14547893
159	0xbe0743f8	-0.13209522
160	0xbe2c543a	-0.16829005
161	0xbd98d048	-0.074616015
162	0x3d809a74	0.062794596
163	0xbcd7fd14	-0.026365794
164	0x3e4ba74d	0.19888039
165	0xbe2da366	-0.16956863
166	0xbe04412b	-0.12915485
167	0x3d883e46	0.06652503
168	0x3decba3f	0.11558961
169	0xbd4b94ee	-0.049702577
170	0xbcefa234	-0.02925215
171	0xbcedf9af	-0.029049722
172	0xbe4352db	-0.19074576
173	0x3e0a70e8	0.13519633
174	0x3e12712e	0.14300987
175	0x3d5fb67d	0.054617394
176	0xbe285973	-0.16440372
177	0xbd9d9063	-0.07693555
178	0x3e360724	0.17776161
179	0x3cc4af4e	0.024009373
180	0xbcaa9e5c	-0.020827465
181	0x3da7d873	0.08195581
182	0x3e49497d	0.1965694
183	0xbdf9ab3e	-0.12190865
184	0x3e20802a	0.1567389
185	0x3e4047a9	0.18777336
186	0xbd833aa0	-0.06407666
187	0x3cade281	0.02122617
188	0xbde54cd3	-0.11196294
189	0xbe1ba3fa	-0.15199271
190	0x3bd9ec54	0.006650487
191	0x3d58b2f7	0.05290505
192	0x3e4e5464	0.2014938
193	0x3d1c1436	0.038105212
194	0xbd48f497	-0.049061384
195	0xbd6e97c1	-0.058250193
196	0x3d1221a5	0.035676617
197	0xbda22ae2	-0.079183355
198	0xbdf48895	-0.119401135
199	0x3e2034ba	0.15645114
200	0x3d947e05	0.07250599
201	0xbc85cdf1	-0.016333552
202	0xbe113117	-0.14178883
203	0x3ccdf6cc	0.025142096
204	0xbe1b998b	-0.1519529
205	0xbe14ee68	-0.1454407
206	0xbe016f32	-0.12640074
207	0xbe1142be	-0.14185616
208	0x3c87d1c8	0.016579524
209	0x3e24a122	0.16077092
210	0x3d7b11de	0.061296336
211	0x3ddf8987	0.10914903
212	0xbdda8541	-0.106699474
213	0x3d2e8422	0.04260648
214	0x3e1276f5	0.14303191
215	0x3e40380a	0.18771377
216	0x3da9a80e	0.08284007
217	0x3b3c436b	0.0028726708
218	0xbe469069	-0.19391026
219	0x3de53449	0.11191613
220	0xbd25d80b	-0.040489238
221	0xbe05a852	-0.1305249
222	0x3bf6499d	0.0075160996
223	0x3e1d4e76	0.15361962
224	0x3e4b2cc0	0.1984129
225	0x3d238f23	0.039931428
226	0x3e0a688d	0.13516445
227	0xbe43c0f7	-0.19116579
228	0x3dc50052	0.09619202
229	0x3de00f56	0.10940425
230	0xbded3407	-0.11582189
231	0xbe462684	-0.1935063
232	0x3e3951dd	0.18097635
233	0xbe1cb464	-0.15303189
234	0x3e3e95bd	0.18611808
235	0x3e181027	0.14849912
236	0x3dc2ac25	0.0950549
237	0x3de1ab20	0.11018968
238	0xbda876c6	-0.08225779
239	0xbd842a77	-0.06453412
240	0x3d9bf194	0.07614437
241	0xbe342868	-0.17593539
242	0xbde9b91d	-0.11412261
243	0x3d9dfa87	0.077138
244	0x3e2ba44a	0.1676189
245	0xbe003cde	-0.12523219
246	0xbdb5c123	-0.088747285
247	0xbd1030db	-0.035202842
248	0xbdd73b52	-0.10509361
249	0x3e4b53ad	0.19856139

bias f4 [10]
0	0x3b401cba	0.0029313997
1	0x3e15638c	0.14588755
2	0x3db15896	0.086594746
3	0x3dcdef42	0.100554004
4	0xbe02549b	-0.12727587
5	0xbde1733b	-0.110083066
6	0x3c3af1e5	0.011410211
7	0x3db22930	0.08699262
8	0x3e2fa39c	0.17152256
9	0xbdede7dd	-0.1161649

weight f4 [10, 10, 7, 7]
0	0xbce01ec9	-0.02735843
1	0xbd2193b3	-0.039447498
2	0x3ccb0a76	0.024785262
3	0x3d0627eb	0.032752912
4	0xba88a192	-0.0010424128
5	0xbd2f8c7a	-0.04285858
6	0xbbf74324	-0.0075458456
7	0x3cfb8792	0.030704293
8	0x3c2c5035	0.01051717
9	0xbc19dfba	-0.0093917195
10	0xbd37dab6	-0.044886313
11	0xbc325a3b	-0.01088577
12	0x3cc4cc0c	0.024023078
13	0xbd3706a8	-0.044684082
14	0xbc61912b	-0.013767521
15	0x3c989600	0.018626213
16	0xbb23e8a3	-0.0025010488
17	0x3cc01e4f	0.023451952
18	0xbd046813	-0.032325815
19	0xbd07c04e	-0.03314238
20	0x3cb6cc0f	0.0223141
21	0x3ceb8615	0.028750459
22	0x3cac198e	0.02100828
23	0xbcd4084e	-0.025882866
24	0xbd3266bb	-0.043555003
25	0x3c4e0456	0.012574276
26	0x3ce2d06a	0.02768727
27	0xbcaee38e	-0.02134874
28	0xbc48190f	-0.012213006
29	0xbadfc46b	-0.0017072087
30	0xbc0ad551	-0.00847371
31	0x3c2783e4	0.010224316
32	0x3cdf8eef	0.027289836
33	0xba06aaf2	-0.0005137167
34	0x3c453eb5	0.012038876
35	0x3bdc5967	0.006724525
36	0x3d2cb3e6	0.042163752
37	0x3d30643f	0.043064352
38	0x3bb62d7b	0.005559621
39	0x3d1ad720	0.037802815
40	0x3c3ef49d	0.011655
41	0xbd43cde4	-0.047803774
42	0xbca31955	-0.01990954
43	0x3d27b3d0	0.040942967
44	0xbc99809f	-0.01873809
45	0x3d0f451b	0.034978013
46	0x3c984594	0.018587865
47	0x3cc19103	0.023628717
48	0xbc0ed054	-0.0087166615
49	0x3ce2fbce	0.02770796
50	0x3d15f0a4	0.036606446
51	0xbca06484	-0.01957918
52	0xbc0721bf	-0.008247792
53	0x3cb83d6f	0.022490231
54	0xbbcaedd1	-0.0061929007
55	0xbcc0fd65	-0.023558328
56	0xbcc28464	-0.02374477
57	0xbc886899	-0.016651439
58	0x3cca7bd6	0.024717253
59	0x3badcf34	0.0053042416
60	0xbc81afd0	-0.015830904
61	0x3d0db4ac	0.03459613
62	0xbd1d0c0c	-0.038341567
63	0xbbe36adb	-0.0069402284
64	0x3d14fea4	0.036375657
65	0xbccea933	-0.025227165
66	0x3c8dae5a	0.017295051
67	0xbae08749	-0.0017130162
68	0x3c909fc3	0.017654305
69	0x3bc8c6b9	0.006127205
70	0xbc2eab18	-0.010660909
71	0xbcaccb2f	-0.02109298
72	0x3d17cc57	0.037060108
73	0xbca291e0	-0.01984495
74	0xbc8453c2	-0.01615322
75	0xba9d5719	-0.0012004107
76	0x3d0117f0	0.03151697
77	0xbcbf2e20	-0.023337424
78	0x3d134b1b	0.035960298
79	0x3c94aa64	0.018147655
80	0x3aff4518	0.0019475548
81	0xbcdd60e7	-0.027023746
82	0xbcdecbd5	-0.027196804
83	0x3d285889	0.04110006
84	0x3d01ca68	0.03168717
85	0x3c9ff4c9	0.019525902
86	0x3c57e181	0.013176323
87	0x3d10edcf	0.035383042
88	0xbcb75f46	-0.022384297
89	0x3ab0c6f5	0.0013487028
90	0x3d09af01	0.033614162
91	0x3c6dc812	0.0145130325
92	0xbcebaa1b	-0.028767636
93	0x3bdd1446	0.0067468015
94	0x3c8564aa	0.016283352
95	0xbd25d573	-0.040486764
96	0xbc26aa6e	-0.01017247
97	0x3d1f46bd	0.03888582
98	0x3c583ef6	0.013198605
99	0xbca060ff	-0.019577501
100	0xbd00d8c4	-0.031456724
101	0xbcdf9c5a	-0.027296234
102	0x3cfc6db6	0.030814033
103	0xbd0da34a	-0.034579553
104	0x3be56666	0.0070007322
105	0x3ca727f4	0.020404793
106	0xbc9b63f6	-0.018968564
107	0xbd01e216	-0.031709753
108	0xbd167532	-0.03673286
109	0xbc6573f1	-0.014004693
110	0x3c5dcf86	0.013538247
111	0xbcbf8f4a	-0.023383755
112	0x3c122dfb	0.008922095
113	0x3cd156aa	0.02555402
114	0xbca5025c	-0.020142727
115	0x3bac0e61	0.0052507375
116	0xbcd90d7a	-0.026495684
117	0x3ca426f8	0.020038113
118	0x3c731605	0.014836793
119	0x3d1562ff	0.036471363
120	0xbaa21f49	-0.0012368943
121	0xbcbf188f	-0.02332714
122	0x3ce49982	0.02790523
123	0x3cb6665d	0.022265607
124	0xbd075427	-0.03303924
125	0x3d22bdf3	0.03973193
126	0xbc9eee5c	-0.019400768
127	0xbc220158	-0.009888016
128	0xbcfa1acc	-0.030530356
129	0x3c5f8c9a	0.013644362
130	0xbd289e50	-0.041166604
131	0xbb30c439	-0.0026972427
132	0xbd3c2bd5	-0.04594024
133	0x3d0fe637	0.03513166
134	0xbbcea3b6	-0.006306137
135	0xbd2b05fc	-0.041753754
136	0xb743af73	-1.1663756e-05
137	0xbce1b3b0	-0.027551502
138	0xbce688c2	-0.028141383
139	0xbcf063d6	-0.02934448
140	0xbba4bda5	-0.00502749
141	0xbd0de718	-0.034644216
142	0x3cf8227a	0.030289877
143	0xbd01de11	-0.03170592
144	0x3ca43c46	0.020048272
145	0xbb6982a6	-0.003563085
146	0x3d09e1c2	0.033662565
147	0xba10f74d	-0.0005530015
148	0x3bd8c12e	0.0066148257
149	0xbb9ea4e0	-0.004841432
150	0x3caa632a	0.020799238
151	0x3d0e1a67	0.034693148
152	0x3cf16b2d	0.02947005
153	0xbbfed005	-0.0077762627
154	0x3d3eed10	0.0466128
155	0x3c848419	0.01617627
156	0xbcd4edc3	-0.02599228
157	0x3da5d481	0.080971725
158	0x3d2f40b7	0.042786326
159	0xbc0c8d71	-0.008578644
160	0x3d0c92af	0.034319576
161	0x3d5fa701	0.054602627
162	0x3d5e4506	0.054265045
163	0x3d706f18	0.058699697
164	0x3d84ea8b	0.06490048
165	0x3d7c9a50	0.0616706
166	0xbb0917c8	-0.0020918716
167	0x3b89beac	0.004203638
168	0x3c0480be	0.008087335
169	0x3d49511b	0.049149614
170	0x3d5417d5	0.05178054
171	0x3caf32d3	0.02138654
172	0x3cfaa6c1	0.030597093
173	0x3cfa94fd	0.030588621
174	0x3d6bf34f	0.057605084
175	0x3d15488d	0.036446143
176	0x3b4760ed	0.0030422763
177	0x3d024737	0.031806197
178	0x3d70ca63	0.05878676
179	0xbcc332b9	-0.023827897
180	0x3c346fa3	0.011012944
181	0x3d7db92b	0.061944168
182	0xbd62d6b3	-0.055380534
183	0xbd832d70	-0.06405151
184	0x3d30559f	0.043050405
185	0x3cc5ce23	0.024146145
186	0x3d38792e	0.04503744
187	0x3d6ecdfe	0.05830192
188	0xbc5957ed	-0.013265592
189	0xbc317d8f	-0.010833158
190	0xbd09e489	-0.033665214
191	0x3d5b9b32	0.053614803
192	0x3d70e1bc	0.058809027
193	0x3d0e1cc8	0.034695417
194	0x3d9f260a	0.07770927
195	0x3b84cb68	0.004052568
196	0x3d6c0801	0.05762482
197	0xbb0a4afb	-0.002110182
198	0x3a14d92b	0.00056781125
199	0xbc2031fb	-0.009777541
200	0xbde7f965	-0.11326865
201	0xbe239612	-0.15975216
202	0xbd93e1cc	-0.07220802
203	0x3dce4496	0.100716755
204	0x3cd62f36	0.026145559
205	0x3d11ae88	0.035566837
206	0x3c8a19b2	0.016857956
207	0xbdd24320	-0.10266709
208	0xbe055000	-0.13018799
209	0xbd266179	-0.0406203
210	0x3e1af8bc	0.15133947
211	0x3decf5cc	0.115703195
212	0xbb9229ea	-0.004460563
213	0x3d2557d8	0.040366977
214	0xbd6db31d	-0.058032144
215	0xbdcb51f2	-0.09927739
216	0xbdb8f10b	-0.0903035
217	0x3e11d094	0.14239722
218	0x3d5aeac6	0.053446554
219	0xbd2f88d5	-0.042855103
220	0xbd205277	-0.039141145
221	0xbdc16e33	-0.09444847
222	0xbd3853fe	-0.045001976
223	0xbd6d9777	-0.058005776
224	0x3cdf4487	0.027254356
225	0x3d7ac2c7	0.06122091
226	0x3dc11c09	0.094291754
227	0x3cef3993	0.029202258
228	0xbd549cb6	-0.051907264
229	0xbddd30f6	-0.10800354
230	0xbc3e3058	-0.011608206
231	0xbd00a02a	-0.031402744
232	0x3d1252e2	0.035723574
233	0x3d8120b7	0.06305068
234	0x3b31d99a	0.0027137757
235	0xbd5657c5	-0.052329797
236	0xbe28baa9	-0.16477455
237	0x3ceb4e73	0.028723931
238	0xbd04f67a	-0.03246162
239	0xbc8a2f17	-0.016868157
240	0x3b1813f7	0.002320526
241	0x3b816649	0.003948961
242	0xbb4347d6	-0.0029797456
243	0xbd16614a	-0.036713876
244	0x3d68254e	0.0566762
245	0xbd761d57	-0.060086574
246	0xbd557c55	-0.052120525
247	0xbccd1b53	-0.025037443
248	0xbb9ce5cf	-0.0047881375
249	0xbd05ccdf	-0.032666083
250	0xbd1b215e	-0.03787362
251	0xbc9e4f9a	-0.019325066
252	0xbda69d78	-0.081355035
253	0xbd786dc5	-0.06065156
254	0xbd198e3b	-0.037489157
255	0x3c205a35	0.009787132

bias f4 [10]
0	0x3ca2f829	0.019893723
1	0x3b940f13	0.0045183985
2	0x3d182fe3	0.037155043
3	0xbcdf4063	-0.027252382
4	0xbbce769c	-0.0063007604
5	0x3d1097b5	0.03530093
6	0xbcee89b7	-0.029118402
7	0xbb88ab9c	-0.004170848
8	0x394c4b7d	0.00019483078
9	0x3c6620e0	0.014045924

weight f4 [10, 10, 9, 9]
0	0xbb460a90	-0.0030218698
1	0xbc7f41ca	-0.01557965
2	0xbc92de2f	-0.017928211
3	0xbc666dd6	-0.014064273
4	0x3d1c97f0	0.038230836
5	0x3cc820d4	0.024429716
6	0x3b71fe39	0.003692521
7	0x3c222541	0.009896577
8	0x3bcdd72f	0.0062817554
9	0x3c44487f	0.011980175
10	0x3c8a92a2	0.016915623
11	0x3ca54892	0.020176206
12	0xbc0701e5	-0.008240198
13	0x3cd2fae3	0.025754398
14	0x3bf66718	0.007519614
15	0x3d082d4d	0.033246327
16	0xbc191a84	-0.009344701
17	0xbc86c9fc	-0.016453736
18	0x3cc5d7bf	0.024150727
19	0x3d0a7cf1	0.03381056
20	0x3d0f6552	0.035008736
21	0x3cb5758a	0.022150774
22	0x3c53e817	0.0129337525
23	0xbbd2a83f	-0.006428748
24	0x3d1dcf0f	0.038527545
25	0x3c1b4675	0.0094772475
26	0x3c59e878	0.013300054
27	0x3c500e92	0.012698786
28	0xbb71fe49	-0.0036925247
29	0xbba37fc8	-0.004989598
30	0xbc5d104e	-0.013492657
31	0xbc9004e8	-0.017580464
32	0x3ce173ac	0.027520977
33	0x3bb6c987	0.005578223
34	0x3c8f0639	0.017459022
35	0x3caf60a4	0.021408387
36	0x3b885a0c	0.004161125
37	0xbc732d81	-0.014842392
38	0x3d1bb5c3	0.03801514
39	0x3c74559f	0.014912992
40	0x3d0ed9ad	0.03487556
41	0xbcbeb85c	-0.023281269
42	0xbc65ad4d	-0.014018369
43	0xbcfebc61	-0.031095685
44	0x3c294cc7	0.010333247
45	0xbbf6197b	-0.0075103617
46	0xbbc8a16f	-0.00612276
47	0xbcd28423	-0.025697773
48	0xbcbd32d1	-0.02309552
49	0xbb11231f	-0.0022146178
50	0x3d0f30ad	0.03495853
51	0x3cf83817	0.030300183
52	0x3c06874f	0.008210971
53	0x3d10fb77	0.035396066
54	0xbb512b69	-0.0031916744
55	0x3cb527df	0.022113739
56	0x3d12c3e5	0.03583135
57	0xbc79945b	-0.015233125
58	0xbc85a589	-0.016314285
59	0x3bc22b00	0.005925536
60	0xbab5fef4	-0.0013885186
61	0x3ce951a0	0.028481305
62	0xbcb807df	-0.02246469
63	0x3c8db239	0.017296897
64	0x3cf07a59	0.029355215
65	0x3c66551b	0.014058377
66	0xbb62cb34	-0.0034605982
67	0xbc8d0caf	-0.017217962
68	0xbb771345	-0.0037700695
69	0xba998636	-0.0011712972
70	0xbc8b203c	-0.016983144
71	0x3c3fbc0c	0.011702549
72	0x3c84e3a8	0.016221836
73	0xb9cdb848	-0.00039237947
74	0x3c4140bf	0.011795222
75	0xbb75b195	-0.003748988
76	0xbc0f958c	-0.008763682
77	0x3ccbdb00	0.0248847
78	0xbd000b6f	-0.031260904
79	0x3c21216e	0.00983463
80	0xbcacfbb5	-0.021116117
81	0xb8a6b321	-7.948862e-05
82	0xbc367bda	-0.011137927
83	0x3be96844	0.007123025
84	0xbce69d83	-0.02815128
85	0x3ca2f2af	0.019891111
86	0x3ce0ba8b	0.0274327
87	0x3ce3a5b5	0.027788976
88	0x3c535b6f	0.012900217
89	0xbcdde83f	-0.027088283
90	0xbb82dc77	-0.0039935666
91	0x3c1f0402	0.009705545
92	0x3ccbee77	0.024893982
93	0xbc96ce9e	-0.01840907
94	0x3c655146	0.013996428
95	0xbc79c4c0	-0.015244663
96	0x3caf95c3	0.021433717
97	0xbb903f8f	-0.004402108
98	0x3c4cd609	0.012502202
99	0xba777bcf	-0.0009440751
100	0x3d0f8660	0.03504026
101	0x3d125988	0.035729915
102	0x3d190917	0.037362184
103	0x3c14a3ce	0.009072257
104	0x3c31a474	0.010842431
105	0xbc13a312	-0.009011047
106	0x3b8aad25	0.004232066
107	0xbb5d517f	-0.00337705
108	0x3c08c1cb	0.008346985
109	0x3b9dcccd	0.004815674
110	0x3bce1f3b	0.006290344
111	0x3c8deb05	0.01732398
112	0x3bc7cf00	0.0060976744
113	0xbab89935	-0.0014083745
114	0xbcc92847	-0.024555339
115	0xbc2e274e	-0.010629488
116	0x3c42d959	0.01189264
117	0x3c2b4c9e	0.010455279
118	0xbce04367	-0.02737589
119	0xbced3a24	-0.028958388
120	0xbcaa8378	-0.020814642
121	0xbc71eef2	-0.014766442
122	0x3cf125c1	0.029436948
123	0x3d179c27	0.037014153
124	0xbb02f7cc	-0.0019984124
125	0x3d164a3e	0.036691897
126	0xbc88030a	-0.016603012
127	0x3c09fec0	0.008422554
128	0x3bb4bf79	0.0055159894
129	0x3b946c2a	0.0045294957
130	0x3c899de3	0.016798919
131	0x3c4a7f70	0.012359485
132	0xbccd52a1	-0.025063815
133	0xbc257da7	-0.010100759
134	0x3c6edcc7	0.014579005
135	0xbc9a637c	-0.018846266
136	0x3c7db9e9	0.015486219
137	0x3c69496c	0.014238697
138	0x3ccb3fbe	0.024810668
139	0x3d18d49d	0.03731214
140	0x3c11d43b	0.008900697
141	0xbb09204c	-0.0020923791
142	0x3c6c464d	0.014421058
143	0x3c5c182b	0.0134334965
144	0x3d0ea7c0	0.034827948
145	0x3cc8d93f	0.024517654
146	0x3d0d390a	0.034478225
147	0xbc9bb5cb	-0.019007584
148	0xbceeabaa	-0.02913459
149	0xbcca4989	-0.024693267
150	0xbbfd2f2a	-0.0077265697
151	0x3ad63042	0.0016341286
152	0xbc8783d9	-0.016542362
153	0xbc950e13	-0.018195188
154	0xbc819473	-0.015817856
155	0xbcae0de2	-0.021246854
156	0x3c96fba8	0.018430546
157	0x3c789876	0.015173068
158	0xbcc4ae53	-0.024008906
159	0xbc6283e6	-0.013825392
160	0xbd026fdf	-0.03184497
161	0xbc80e64e	-0.015734818
162	0xbd02a7a7	-0.031898167
163	0x3bc460a3	0.0059929653
164	0xbb3912cd	-0.0028239966
165	0x3c71e5e9	0.0147642875
166	0xbac95a32	-0.0015361963
167	0x3c46f95d	0.012144414
168	0x3d669970	0.056298673
169	0xbbbb6678	-0.0057190023
170	0xbd206112	-0.039155073
171	0xbd094212	-0.033510275
172	0x3b85813c	0.004074244
173	0x3ca924b2	0.02064738
174	0xbc98f96b	-0.01867362
175	0x3b4703a2	0.0030367156
176	0x3d1b7826	0.03795638
177	0x3c1bfbea	0.00952051
178	0x3d3a54c3	0.04549099
179	0x3c3ab341	0.0113952765
180	0xbcfd2851	-0.030903013
181	0xbc735e88	-0.014854081
182	0x3cc469eb	0.023976287
183	0x3c8583e3	0.01629824
184	0x3cb8c551	0.022555025
185	0xbc4355b1	-0.011922286
186	0x3b9b5fdd	0.0047416524
187	0x3cb8591f	0.022503434
188	0xbcd78aab	-0.02631124
189	0x3c92425e	0.017853912
190	0xbc06e3a9	-0.008232989
191	0x3d274654	0.040838555
192	0x3d346250	0.04403907
193	0xbc1a01ed	-0.009399873
194	0x3cf2e03a	0.029647935
195	0x3cd220e2	0.025650445
196	0x3cd8b91b	0.026455453
197	0xbc542afa	-0.0129497
198	0x3c28d0de	0.010303704
199	0x3c671e4d	0.014106345
200	0x3d76a412	0.060215063
201	0x3d5bb595	0.053639967
202	0x3b7f644c	0.0038969694
203	0x3d01de49	0.03170613
204	0x3d794db4	0.06086512
205	0x3d24e057	0.04025301
206	0xbbd0675e	-0.0063599786
207	0xbc81845a	-0.01581018
208	0x3d0800ca	0.033203878
209	0x3c123ae1	0.008925171
210	0xbbc98e21	-0.0061509763
211	0x3d424a87	0.047434356
212	0x3c1fc113	0.009750622
213	0x3d319afd	0.0433607
214	0x3c5a409d	0.013321069
215	0x39964b19	0.00028666182
216	0x3cd33e27	0.025786472
217	0x3d0ffdb7	0.03515407
218	0x3ca154d1	0.019693764
219	0x3c117e9d	0.008880285
220	0x3d212fbd	0.039352167
221	0xbc07282f	-0.008249327
222	0x3d1c6a48	0.038187295
223	0xbbeaeb12	-0.007169136
224	0xb9bea954	-0.00036365783
225	0x3ad568f9	0.0016281895
226	0xba9a29b4	-0.0011761696
227	0x3d256731	0.040381614
228	0x3cad58c3	0.021160489
229	0x3c2a9113	0.010410565
230	0x3ceae7ed	0.028675044
231	0x3d291c1b	0.04128657
232	0xbbcd18cd	-0.00625906
233	0xbcac28c3	-0.02101553
234	0xbb51144c	-0.0031902967
235	0xbca61905	-0.020275602
236	0x3d39b54c	0.045338914
237	0x3d3ddf50	0.046355546
238	0x3c484e76	0.012225738
239	0x3c0236ef	0.0079476675
240	0x3bdaffc2	0.0066833207
241	0x3d68d8d5	0.056847412
242	0x3d2360d5	0.039887268
243	0xbcfd9b5f	-0.030957876
244	0xbc65c46b	-0.0140238805
245	0xbd043640	-0.0322783
246	0x3ce8ecbb	0.028433194
247	0x3d1159d2	0.03548605
248	0xbb8c713b	-0.004285959
249	0xbc9fe2cc	-0.019517325
250	0xbbe35248	-0.006937299
251	0xbc53aed7	-0.012920103
252	0xbcdf8976	-0.027287226
253	0x3d097ebf	0.03356814
254	0xbce9d889	-0.028545635
255	0x3ccc6cb1	0.024954172

bias f4 [10]
0	0x3cb443d5	0.022005001
1	0xbc097df9	-0.008391851
2	0x3aaecf0c	0.0013336851
3	0xbcbcd429	-0.023050385
4	0xbc98141a	-0.018564273
5	0xbccb98f4	-0.024853207
6	0xbaab6de9	-0.001307902
7	0xbc52ae9f	-0.012859016
8	0x3cbfb14f	0.023399977
9	0x3ac45592	0.0014979115

weight f4 [1, 10, 11, 11]
0	0xbc1003bb	-0.008789952
1	0xbc518f76	-0.012790551
2	0xbb07df56	-0.0020732484
3	0x3c038ce3	0.0080291955
4	0x3cd009c3	0.02539528
5	0xbc525515	-0.012837668
6	0x3c82b365	0.015954683
7	0xbc7e3427	-0.015515364
8	0x3cb4a113	0.022049462
9	0x3c3fdd74	0.011710513
10	0x3cbfecad	0.023428285
11	0x3c94af2b	0.018149933
12	0x3cd2c03f	0.025726436
13	0x3c8a885c	0.016910724
14	0xbcae9818	-0.021312758
15	0xbb9bf9fe	-0.004760026
16	0x3ca2a5f5	0.019854525
17	0xba96fe06	-0.0011519797
18	0xbcd939dd	-0.02651685
19	0xbcdbb738	-0.026820764
20	0xbcd77d87	-0.026304973
21	0xbcc76909	-0.024342077
22	0x3bf2be5e	0.0074079474
23	0x3c52617a	0.012840623
24	0xbc804341	-0.01565707
25	0x3aaa9fdc	0.0013017613
26	0xbc035482	-0.008015754
27	0x3ccec00e	0.025238063
28	0xbccd3ed7	-0.025054378
29	0x3cbc5037	0.022987468
30	0x3cb8024b	0.02246203
31	0x3cbc0127	0.022949768
32	0xbbe15e2d	-0.0068776817
33	0x3cf2222f	0.029557316
34	0x3cf6f753	0.03014723
35	0x3b7460ed	0.0037289218
36	0x3cbf5ca0	0.023359597
37	0x3cb2a88c	0.021808885
38	0x3c2c4f83	0.010517004
39	0x3cb21c6a	0.021742065
40	0x3cb7e35d	0.022447282
41	0x3c29edf8	0.010371678
42	0xbb904295	-0.0044024684
43	0xbc75e6ea	-0.0150086675
44	0x3bb662ac	0.005565962
45	0x3c9c46ce	0.019076731
46	0x3c7e7e81	0.015533091
47	0x3c4ec641	0.01262051
48	0xbc7a3704	-0.015271906
49	0x3bba1631	0.005678915
50	0x3c506fa1	0.012721927
51	0xbc920a34	-0.01782713
52	0x3c879e56	0.016554993
53	0xbc79c9a1	-0.015245826
54	0xbc93e64f	-0.018054156
55	0xbc236d4d	-0.00997479
56	0xbc73509f	-0.014850765
57	0xbcb1fde3	-0.021727508
58	0x3c90dda4	0.017683811
59	0xbc850cd1	-0.016241463
60	0xba3a166f	-0.000709868
61	0x3cc80743	0.024417525
62	0x3c8ba615	0.017046968
63	0x3bb5f8b3	0.005553329
64	0xbccdabca	-0.02510633
65	0x3cc61c04	0.02418328
66	0xbc777ada	-0.015104974
67	0x3be5418b	0.0069963387
68	0x3b94ecf8	0.0045448504
69	0xbb8c3121	-0.0042783176
70	0xbca78c9f	-0.020452796
71	0xbc06fca2	-0.008238943
72	0xbc8ae7e6	-0.01695628
73	0x3be9c08d	0.0071335495
74	0x3c7f3acd	0.015577984
75	0x3c7719ff	0.015081882
76	0x3c085bf4	0.008322705
77	0x3bb220d0	0.0054360405
78	0xb88054b2	-6.119291e-05
79	0x3b9f34bf	0.0048585827
80	0x3bc4d19c	0.0060064327
81	0x3cf9ec32	0.030508135
82	0x3cd3e62e	0.025866594
83	0x3c88562b	0.01664265
84	0xbc9eade5	-0.019370029
85	0xbc41d7e5	-0.011831258
86	0x3ad511ea	0.0016255949
87	0x3b912f56	0.0044306917
88	0x3d01eb11	0.031718317
89	0x3ce6774c	0.028133057
90	0xbca37a4e	-0.01995578
91	0x3bf89e06	0.0075871972
92	0x3ccfb0fd	0.02535295
93	0x3c3cb7aa	0.011518398
94	0xbc786db0	-0.01516287
95	0xbcc87ec1	-0.024474503
96	0x394e3c12	0.00019668069
97	0x3ca72464	0.020403095
98	0x3b75584b	0.003743666
99	0xbc744789	-0.014909633
100	0x3c2baea9	0.010478654
101	0xbc5ca79c	-0.013467696
102	0x3be3d40a	0.0069527673
103	0x3cf7e42f	0.030260174
104	0xbb539bd9	-0.0032288937
105	0xbcc0d1e2	-0.02353758
106	0x3cb8d745	0.022563586
107	0xbcd1c3b9	-0.025606023
108	0x3c68c840	0.0142079
109	0xbcd422c7	-0.02589549
110	0x3c9a90b0	0.01886782
111	0x3c0849ce	0.008318378
112	0xbb2832cb	-0.002566504
113	0xbca1458b	-0.019686481
114	0x3c73f0f6	0.0148889925
115	0xbc009b2d	-0.007849497
116	0x3cbe5ec9	0.023238556
117	0xbc400092	-0.011718886
118	0x3cabda8a	0.020978231
119	0x3c67a4eb	0.014138441
120	0x3c578551	0.013154344
121	0x3c3b7f72	0.01144396
122	0xbce73a2c	-0.02822598
123	0x3c7d969f	0.015477805
124	0xbc2a02b7	-0.010376624
125	0x3c5c957d	0.013463375
126	0xbb76a3bf	-0.0037634221
127	0x3bfe1bc8	0.0077547766
128	0xbc0b2979	-0.008493775
129	0x3c42e909	0.01189638
130	0xbc9fd20d	-0.01950934
131	0x3ca0bbfc	0.019620888
132	0xbc6fba1b	-0.014631773
133	0x3ca8946d	0.020578587
134	0x3c525ae6	0.012839055
135	0xbcb93e3f	-0.022612689
136	0xbc8ac875	-0.016941288
137	0x3b274702	0.0025524502
138	0x3aee0b12	0.0018161258
139	0xbcd5b1ca	-0.026085753
140	0xbc821801	-0.015880587
141	0xbcbf5880	-0.02335763
142	0xbbf141d0	-0.007362582
143	0xbae18a3e	-0.0017207337
144	0x3c8ac44b	0.016939303
145	0xbcbbd1af	-0.022927133
146	0x3beca20a	0.007221465
147	0xbc93dd83	-0.018049961
148	0x3c24f490	0.010068074
149	0x39fbf187	0.00048054403
150	0x3ba3455f	0.004982635
151	0x3c9a49ac	0.018833958
152	0x3c77c6b6	0.01512306
153	0xbc698709	-0.014253386
154	0x3c0bfa02	0.008543493
155	0x3ce19e27	0.027541233
156	0x3b3541d0	0.0027657636
157	0x3c3e63d6	0.011620482
158	0x3c715643	0.014730039
159	0xbc9b1eac	-0.018935524
160	0x3c9410bb	0.018074384
161	0x3a9eeafb	0.0012124473
162	0xbcb32d41	-0.021872165
163	0xbcdec2a5	-0.027192423
164	0xbc97350a	-0.018457908
165	0xbc89a5ab	-0.01680263
166	0x3ce64d46	0.028113019
167	0x3cb92c91	0.022604259
168	0xbcb095ed	-0.021555865
169	0xbbb1582c	-0.0054121222
170	0xbc5cf5f5	-0.013486375
171	0x3cd6092c	0.02612742
172	0x3c84a873	0.016193604
173	0xba1024b4	-0.0005498633
174	0xbc67f16e	-0.014156682
175	0x3c8f27d3	0.017475044
176	0x3b886504	0.0041624326
177	0x3cdd175a	0.026988674
178	0xbb832f4e	-0.004003442
179	0x3ccec1a9	0.025238829
180	0xbc77eeb1	-0.015132592
181	0x3c980b45	0.018560061
182	0x3c9a2b62	0.018819515
183	0xbb6e5028	-0.0036363695
184	0x3c3a9e25	0.011390244
185	0x3c182ed3	0.0092885075
186	0xbc90488f	-0.017612724
187	0xbb398460	-0.0028307661
188	0x3c0f5ed6	0.008750638
189	0x3c9da6b6	0.019244533
190	0xbc289018	-0.010288261
191	0xbb102663	-0.0021995537
192	0xbb89a2d6	-0.0042003198
193	0x3cf00f23	0.029304093
194	0x3ccb611f	0.024826584
195	0xbc53ce78	-0.012927644
196	0x3bad18a1	0.005282477
197	0x3a545128	0.00080992514
198	0xbcb6a087	-0.022293342
199	0x3c2fd662	0.010732265
200	0x3cce4633	0.025179958
201	0xbce4cd7f	-0.02793002
202	0xbc8e77f8	-0.01739119
203	0x3c0605f9	0.008180135
204	0x3c66877f	0.014070391
205	0x3c80d1e3	0.015725082
206	0xbcbe6008	-0.02323915
207	0xbc3229f8	-0.010874264
208	0x3c753f48	0.014968701
209	0x3c6ee3ae	0.01458065
210	0xbc9d9d5d	-0.019240076
211	0xbc2179b5	-0.009855677
212	0xbc584291	-0.013199464
213	0x3c3a5bea	0.011374453
214	0x3b8d6c2a	0.0043158727
215	0x3c264bbf	0.010149895
216	0xbc835419	-0.016031312
217	0xbce49b8a	-0.027906198
218	0x3b540568	0.0032351855
219	0xbc97c3a0	-0.018525898
220	0xbc3fbe6d	-0.011703116
221	0x3c121240	0.008915484
222	0xbb059e50	-0.002038855
223	0x3bd9e7d3	0.00664995
224	0x3c46ccbe	0.012133775
225	0x3c8f3e39	0.017485725
226	0x3bb51ea3	0.005527334
227	0xbca92947	-0.020649565
228	0x3ccfea38	0.025380239
229	0x3b83397f	0.004004657
230	0xbc21e69c	-0.009881642
231	0x3cb55b51	0.02213827
232	0xbca9d029	-0.020729141
233	0x3c6c0560	0.014405578
234	0xbc81882f	-0.015812008
235	0x3c508ef3	0.012729394
236	0xbc79e021	-0.01525119
237	0xbccfa231	-0.025345894
238	0x3cbfe513	0.02342466
239	0xbc5e4ec7	-0.013568587
240	0xbb61439e	-0.0034372578
241	0x3c7104ae	0.014710588
242	0x3c6619c6	0.014044231
243	0x3cd1b969	0.025601106
244	0x3c84aaf8	0.016194806
245	0xbcd4852d	-0.02594241
246	0xbc5f6857	-0.013635716
247	0xbcbd7e02	-0.023131374
248	0x3d01cfaa	0.031692185
249	0x3b587725	0.003303
250	0x3c3344ef	0.010941728
251	0x3ce7d160	0.02829808
252	0xbc882730	-0.016620249
253	0x3c97d7d1	0.018535526
254	0x3a26aa25	0.0006357751
255	0x3cdef753	0.027217543
