model_final.pt (torch, 104503 bytes, 7 tensors)

weight f4 [10, 1, 6, 6]
0	0x3dc4e9a8	0.09614879
1	0x3decdde1	0.115657575
2	0xbbc4a2d6	-0.006000857
3	0x3dcb2d9f	0.09920811
4	0xbd24a7b8	-0.04019901
5	0x3e141a04	0.14463049
6	0x3dffb3b8	0.124854505
7	0x3d7e3dae	0.06207054
8	0x3de139ef	0.10997378
9	0xbc44022b	-0.0119634075
10	0x3d3129b2	0.043252654
11	0x3dcbf797	0.099593334
12	0xbe0f2eca	-0.13982692
13	0xbe151a59	-0.14560832
14	0x3d812efa	0.06307788
15	0x3e0c99cb	0.13730542
16	0x3db6c6de	0.0892465
17	0xbd8f6496	-0.07001607
18	0xbe30485b	-0.17215101
19	0xbd1c54b1	-0.038166706
20	0x3badb3c5	0.005300971
21	0x3e00047f	0.12501715
22	0xbe00b9a5	-0.12570818
23	0x3dd010a8	0.10159427
24	0xbd4afcd1	-0.04955751
25	0xbd0db2f7	-0.034594502
26	0x3e008649	0.12551226
27	0x3d800ade	0.06252073
28	0xbe117584	-0.14204985
29	0x3dcb1e52	0.099178925
30	0xbd92b5b7	-0.071635656
31	0x3d5af2dc	0.053454265
32	0x3c7f5cd6	0.015586099
33	0x3de6ddfa	0.112728074
34	0xbd897174	-0.067110926
35	0xbcef45f3	-0.02920816
36	0xbc8c987b	-0.017162552
37	0xbde92ab2	-0.113850966
38	0xbcb74138	-0.022369966
39	0x3cfa7898	0.030575082
40	0x3cee674c	0.02910199
41	0xbd9c0daa	-0.07619794
42	0xbe1c7672	-0.15279558
43	0xbb66f9f0	-0.003524419
44	0xbd923cec	-0.07140526
45	0x3d72b10a	0.05925087
46	0x3d6133c4	0.05498101
47	0x3dc56edb	0.09640285
48	0xbe0bcecb	-0.13653104
49	0xbdb8ce85	-0.090237655
50	0x3d2ae156	0.041718803
51	0x3da580cb	0.08081206
52	0x3e01e320	0.12684298
53	0x3d82d8ca	0.063890055
54	0x3d772af6	0.060343705
55	0xbbb95944	-0.0056563932
56	0x3e21eaa8	0.1581217
57	0xbd37105c	-0.044693336
58	0x3c3dc2c3	0.011582079
59	0x3d2c4f5e	0.042067878
60	0xbd93f135	-0.07223741
61	0x3e25d9d2	0.16196373
62	0x3e0628d1	0.13101508
63	0xbdb17e32	-0.08666648
64	0xbdc158d5	-0.094407715
65	0x3e03e5f2	0.12880686
66	0xbc95a3e5	-0.018266628
67	0xbdc90a1d	-0.09816382
68	0x3de376cf	0.11106645
69	0x3ca60f40	0.020270944
70	0x3dcd51b7	0.100253515
71	0xbd029141	-0.031876806
72	0x3ddd65fa	0.10810466
73	0xbe09ee71	-0.13469864
74	0x3e12e6a7	0.143458
75	0x3d7f0ed1	0.06226999
76	0xbddd007b	-0.10791107
77	0x3dcd582c	0.10026583
78	0xbe260e89	-0.16216482
79	0xbde67b49	-0.112539835
80	0x3bf0a006	0.007343295
81	0xbe0a4468	-0.13502657
82	0xbdeaa180	-0.11456585
83	0xbdb689a5	-0.08912972
84	0xbe1c51d0	-0.15265584
85	0x3db05144	0.0860925
86	0x3e0848c4	0.13309008
87	0xbdf0d5e8	-0.117595494
88	0x3d8358dd	0.06413434
89	0x3d8b8ee8	0.068143666
90	0xbcdf7e8d	-0.027282024
91	0x3e21114c	0.15729254
92	0xbd210ad7	-0.03931698
93	0xbd529356	-0.05141004
94	0x3dd69016	0.10476701
95	0x3d965799	0.07340927
96	0xbdbb1f3c	-0.09136817
97	0x3e238af4	0.15970975
98	0xbdb19863	-0.086716436
99	0xbe22acd8	-0.15886247
100	0x3da5b52b	0.08091196
101	0x3e146b15	0.14493974
102	0x3e0359a0	0.12827158
103	0xbe149809	-0.14511122
104	0xbde3c50a	-0.111215666
105	0x3e0a61f7	0.13513933
106	0x3de45b13	0.111501835
107	0xbde215ea	-0.11039336
108	0xbd8f24ee	-0.06989466
109	0xbdce3f69	-0.10070688
110	0xbdd94c09	-0.10610206
111	0x3e42674a	0.18984714
112	0x3df78cd3	0.12087407
113	0xbdc2d21e	-0.09512733
114	0x3dbe57b4	0.09294072
115	0x3bebfe8e	0.007201976
116	0xbd883837	-0.06651347
117	0x3d52bf5b	0.051452022
118	0x3dff6823	0.124710344
119	0xbd34449e	-0.04401075
120	0x3dabcad9	0.083882995
121	0xbde76bd4	-0.112998635
122	0x3d1bbd95	0.038022596
123	0xbe37084a	-0.17874256
124	0xbded3d0b	-0.11583909
125	0x3e15e9a6	0.14639911
126	0xbe276677	-0.16347681
127	0xbddcb91d	-0.10777495
128	0x3dcc830a	0.09985931
129	0xbe2b93ad	-0.16755553
130	0x3d3af412	0.04564292
131	0xbde88e40	-0.11355257
132	0xbd9e9f3b	-0.077452146
133	0x3d9de691	0.07709993
134	0x3de3604a	0.1110235
135	0x3c2fcdba	0.010730201
136	0xbd580108	-0.05273536
137	0x3d8f527f	0.06998157
138	0x3d547ec9	0.051878724
139	0x3dd8dce2	0.10589005
140	0x3e234d6e	0.15947506
141	0xbbed504d	-0.0072422386
142	0x3d87b2e7	0.0662592
143	0xbad12c76	-0.0015958685
144	0x3c913a94	0.017728128
145	0xbe25f4c3	-0.1620665
146	0x3d11bf8c	0.035583064
147	0xbe122a88	-0.14274037
148	0xbdab7eb2	-0.083737746
149	0x3d37c773	0.044867944
150	0xbd974278	-0.07385725
151	0x3d21fa48	0.039545327
152	0x3ca7c432	0.020479295
153	0xbd82b019	-0.06381244
154	0x3d9ce23c	0.07660338
155	0x3e11e664	0.14248043
156	0xbdc1d79b	-0.094649516
157	0xbbae205e	-0.005313917
158	0xbdcd078f	-0.10011207
159	0x3d6ba9d0	0.057534993
160	0x3da80deb	0.0820578
161	0x3e0233c0	0.12715054
162	0xbce7c69c	-0.028292947
163	0x3dfc166b	0.123089634
164	0xbca06a44	-0.019581921
165	0x3dd463ac	0.103705734
166	0xbcb9484c	-0.022617482
167	0xbe17691e	-0.14786193
168	0xbdf6bf6f	-0.12048232
169	0x3dfbe153	0.122988366
170	0x3df33f66	0.11877327
171	0x3e20453f	0.15651415
172	0x3ddc8dc0	0.10769224
173	0x3d2ac53e	0.04169201
174	0x3e1a3d93	0.15062551
175	0xbe0a8bce	-0.13529894
176	0x3e172f1d	0.14764066
177	0xbde801b8	-0.11328453
178	0xbceccb23	-0.028905457
179	0xbdf75441	-0.12076617
180	0x2bdf76e1	1.5878099e-12
181	0xb0eee61b	-1.7382179e-09
182	0x3121e07e	2.3556193e-09
183	0x0008bf7d	8.03377e-40
184	0x800a251e	-9.3167e-40
185	0x256a23e8	2.030843e-16
186	0x23d0fc8a	2.265836e-17
187	0x03f5b539	1.44414125e-36
188	0xb45686d5	-1.9979355e-07
189	0x0006e85b	6.34366e-40
190	0x858d4b98	-1.3287345e-35
191	0x26d9c575	1.5110921e-15
192	0x26c38367	1.356646e-15
193	0x18c0a065	4.9792794e-24
194	0x191ccf4f	8.106877e-24
195	0x2c165fa5	2.1369375e-12
196	0x0001a185	1.49778e-40
197	0xa5b95602	-3.2150665e-16
198	0xb381c894	-6.0435156e-08
199	0x00010672	9.4148e-41
200	0xab007917	-4.564278e-13
201	0xb136a775	-2.6579674e-09
202	0x8003ab33	-3.36921e-40
203	0xaabd5021	-3.3628745e-13
204	0x000342ec	2.99514e-40
205	0x000aeded	1.003707e-39
206	0xb004f20d	-4.8365295e-10
207	0x0008f8ad	8.23892e-40
208	0x2ec70fe1	9.052293e-11
209	0x8fe81f16	-2.288894e-29
210	0xadc7b823	-2.2705454e-11
211	0xa5ad1814	-3.0027032e-16
212	0x16e0cb45	3.6317433e-25
213	0xadeeb322	-2.7137018e-11
214	0xb4de495b	-4.1404095e-07
215	0x00054ba6	4.86315e-40
216	0x3d5ff357	0.054675426
217	0xbdf8c90e	-0.12147723
218	0xbde8485c	-0.113419265
219	0x3de7131c	0.11282942
220	0xbd51bbb9	-0.051204417
221	0x3e2c0c7f	0.16801642
222	0xbe256ede	-0.16155574
223	0x3e13d6a4	0.14437348
224	0xbd6f1131	-0.058366004
225	0x3d9436bd	0.07237003
226	0x3dd5941e	0.10428642
227	0x3d89bc45	0.06725363
228	0xbe213db5	-0.15746196
229	0x3e13cd0b	0.14433686
230	0xbe0194e4	-0.12654454
231	0xbd5a57b5	-0.0533063
232	0xbd8b2f4a	-0.06796129
233	0x3e011081	0.12603952
234	0xbdef2814	-0.11677566
235	0xbd3bff08	-0.045897514
236	0x3d26ebf5	0.04075237
237	0x3deb80e9	0.11499197
238	0xbdec841c	-0.11548635
239	0xbc045d1d	-0.008078841
240	0xbd9c9a5b	-0.076466285
241	0x3e000a93	0.12504034
242	0xbc653db2	-0.01399176
243	0x3e2685c0	0.16261959
244	0x3e160395	0.14649804
245	0x3dbb3c8f	0.0914241
246	0xbd18f3ac	-0.03734176
247	0x3b972c42	0.0046134302
248	0xbcfa30c9	-0.03054084
249	0xbe17819a	-0.14795533
250	0xbd716ce2	-0.05894173
251	0xbdea09b3	-0.11427631
252	0x3d7faa7a	0.06241844
253	0x3b3e0a61	0.0028997886
254	0xbca65ab7	-0.020306928
255	0xbdd48634	-0.1037716

bias f4 [10]
0	0xbcc1b51e	-0.023645934
1	0x3dde8480	0.10865116
2	0x3dd25022	0.1026919
3	0xbd96c3ec	-0.07361588
4	0xbe03cd71	-0.12871338
5	0x29039e79	2.9225296e-14
6	0xbc47efde	-0.012203185
7	0x3e16e760	0.147367
8	0x3e1f1eb9	0.15539064
9	0x3d22bae4	0.039729014

weight f4 [10, 10, 11, 11]
0	0x3c749e51	0.014930324
1	0x3cb45dc4	0.022017367
2	0x3ca011a2	0.019539658
3	0xbc413aa7	-0.011793769
4	0x3b8c5e01	0.004283667
5	0x3bb389c1	0.005479068
6	0x3c3b4be5	0.011431669
7	0x3ba9941a	0.005175126
8	0x3c18a5dc	0.009316888
9	0x3c1eccba	0.009692365
10	0x3c1f57cb	0.009725521
11	0x3bf12e36	0.007360245
12	0x3ccee29e	0.025254544
13	0xbc6d5a00	-0.01448679
14	0x3cca60ce	0.024704363
15	0xbc84f015	-0.016227761
16	0x3b2da471	0.002649572
17	0x3d0062df	0.03134429
18	0x3bf43feb	0.0074539087
19	0x3a3fdc43	0.00073188933
20	0x3c85038f	0.016237048
21	0x3c5cbf18	0.013473295
22	0x3bcedc1c	0.00631286
23	0x3ce044f9	0.027376639
24	0xbbbeb58e	-0.005819983
25	0xbc96d541	-0.018412234
26	0x3ca4ccaa	0.020117123
27	0x3c003d87	0.007827169
28	0x3ce35aeb	0.027753314
29	0x3bd69479	0.006548461
30	0x3aa2af6b	0.0012411898
31	0x3c1ff2d2	0.009762483
32	0x3c2313d1	0.009953455
33	0x3c98af4c	0.018638276
34	0xbc514bd9	-0.012774431
35	0xbcb7b4a0	-0.022424996
36	0x388db6fd	6.757488e-05
37	0xbc8c4009	-0.017120378
38	0xbc028c63	-0.007968041
39	0x3cc4fa14	0.024045028
40	0x3af1e899	0.001845616
41	0x3ae404d8	0.0017396463
42	0x3bf5cc30	0.0075011477
43	0x3c01e626	0.007928407
44	0x3be91807	0.00711346
45	0xbca18769	-0.019717889
46	0x3c7b1dc1	0.015326918
47	0xbcceb803	-0.025234228
48	0xbc31f7c7	-0.010862297
49	0x3bddf508	0.0067735948
50	0x3c3c8eb3	0.0115086315
51	0xba58bcc4	-0.00082678744
52	0x3b0a5b93	0.0021111711
53	0x3c34cf84	0.011035804
54	0x3bc82622	0.0061080614
55	0xbc23daec	-0.0100009255
56	0xbc9b9a12	-0.018994365
57	0xbc72bb94	-0.01481523
58	0x3c209b50	0.009802654
59	0x3a818c1e	0.0009883677
60	0xbc9d7fca	-0.019225974
61	0x3cc08ca0	0.023504555
62	0x3849e02a	4.8130903e-05
63	0x3b373b96	0.00279591
64	0x3bb5c454	0.005547086
65	0x3bb6914a	0.005571519
66	0xbc3362a4	-0.010948811
67	0xbccf8d36	-0.02533589
68	0xbc4a57b3	-0.012350011
69	0xbcdf24d4	-0.02723924
70	0x3cd65385	0.026162872
71	0x3cf350d0	0.02970162
72	0xbb6587f2	-0.0035023657
73	0x3ae418b6	0.0017402384
74	0x3c1c0f6c	0.009525161
75	0x3bf7abfc	0.007558344
76	0x3c16e410	0.009209648
77	0xbcc96c03	-0.024587637
78	0x3c98f755	0.018672625
79	0x3bfd3970	0.0077277943
80	0x3aed930b	0.0018125487
81	0x3bec3106	0.0072079925
82	0x3bb24147	0.0054399106
83	0x3cf00852	0.029300842
84	0x3c741df3	0.014899719
85	0xbb048391	-0.0020220021
86	0x3c091af0	0.008368239
87	0x3b03f150	0.0020132847
88	0xbc46f4e5	-0.012143348
89	0x3c9cff02	0.019164566
90	0xbc8ae01c	-0.016952567
91	0x3be5df81	0.007015169
92	0x3c0aafed	0.008464796
93	0xbc6b7d72	-0.01437317
94	0x3ce8c5ea	0.028414685
95	0x3ba9a9fd	0.005177735
96	0x3b14c06b	0.0022697698
97	0x3bd857df	0.006602272
98	0x3c1a1486	0.009404307
99	0xbacc255f	-0.0015575102
100	0xbb654fef	-0.003499027
101	0xbb8e9990	-0.004351802
102	0xbc476f63	-0.012172553
103	0xbc07990e	-0.008276237
104	0x3b47e472	0.0030501154
105	0x3b89d673	0.0042064725
106	0xb9ec4f0f	-0.0004507233
107	0x3af0b7e5	0.0018365352
108	0xbb2bdc0a	-0.0026223683
109	0x3b853ac0	0.0040658414
110	0xbc2a5c7b	-0.010398026
111	0xbb90b009	-0.0044155163
112	0xbbbaa3d0	-0.0056957975
113	0xbbb478bb	-0.0055075563
114	0xbb1404be	-0.0022585834
115	0x3b67d02a	0.0035371878
116	0x3b5b9c45	0.0033509892
117	0x3ac334cf	0.0014893058
118	0x3adc62d4	0.0016814121
119	0x3b592b7d	0.0033137493
120	0x3b541f85	0.003236742
121	0x3c90a823	0.017658299
122	0x3c661412	0.014042871
123	0xbc82f56a	-0.015986163
124	0xbbd393c1	-0.0064568226
125	0xbb03eac9	-0.0020128957
126	0xb98261c4	-0.00024868373
127	0x3c8c3e9f	0.017119704
128	0x3c00d65a	0.007863605
129	0x3bfe9723	0.0077694817
130	0x3c1444ea	0.0090496335
131	0x3c267f27	0.010162151
132	0x3b975c8b	0.0046191863
133	0xbc441750	-0.011968449
134	0x3c638163	0.013885829
135	0xbca47344	-0.020074494
136	0xbc6247da	-0.013811076
137	0x3cceca2c	0.025242887
138	0xba62e031	-0.0008654623
139	0x3b6140ff	0.0034371016
140	0x3b691e3a	0.0035570995
141	0x3bc19836	0.0059080375
142	0x3c13f495	0.009030481
143	0xbccac901	-0.02475405
144	0xbcce0be6	-0.025152158
145	0x3c325109	0.010883578
146	0xbcd53f86	-0.026031267
147	0xbbcf5137	-0.0063268202
148	0x3ca5811f	0.020203171
149	0x3b02b142	0.001994208
150	0xb9c2c021	-0.0003714571
151	0x3a47aded	0.00076171645
152	0x3b9ee764	0.0048493613
153	0x3b42d75e	0.002973042
154	0x3c834edf	0.01602882
155	0x3b64d6f7	0.0034918168
156	0xbbaf24cb	-0.0053449622
157	0xbce69d06	-0.028151046
158	0xbbc6ad8b	-0.0060631684
159	0x3ca8d9fd	0.020611757
160	0x3b5feaa9	0.0034166968
161	0xba6ae7d0	-0.00089609344
162	0xb992622c	-0.00027920434
163	0xbb6c9c78	-0.0036104005
164	0x3c1b30b5	0.009472062
165	0xbab51498	-0.0013815342
166	0x3be04304	0.0068439264
167	0xbcbb8ebd	-0.022895211
168	0xbcda3e9d	-0.026641184
169	0xbc4d9709	-0.012548217
170	0x3ca8c741	0.020602824
171	0x3bb6b2ef	0.0055755298
172	0x3afc1349	0.0019231822
173	0x3b83ae08	0.004018549
174	0x3c558b36	0.013033679
175	0x3c44b4ba	0.012005979
176	0xbcc0423c	-0.023469083
177	0xbae9da76	-0.0017841596
178	0xbc54faeb	-0.012999277
179	0x3b306816	0.0026917509
180	0x3b63a756	0.003473719
181	0x3c1c9e10	0.009559169
182	0x39b46c19	0.00034412814
183	0xbb80ee54	-0.003934661
184	0x3bfadf5e	0.007656022
185	0x3c47f8fb	0.012205358
186	0x3bc843b0	0.0061115846
187	0x3c9e6aa3	0.019337958
188	0xbc69f683	-0.014279964
189	0xbaf36e85	-0.0018572366
190	0xbc02476f	-0.007951601
191	0x3cd9082a	0.02649315
192	0xb96c2ee2	-0.00022524179
193	0x3bd02e4f	0.0063531767
194	0xbb503d7c	-0.0031774929
195	0x3bfb82e1	0.007675514
196	0x3bd8b054	0.006612817
197	0x3c98b4ce	0.018640902
198	0x3b8c1f96	0.0042762263
199	0xbbcd984f	-0.00627426
200	0x3bb01829	0.005373974
201	0xbaad68f4	-0.0013230131
202	0xbab2faa3	-0.0013655018
203	0x3c514d9d	0.012774852
204	0x3c167593	0.009183305
205	0x3bb4e991	0.0055210073
206	0x3beeabef	0.0072836797
207	0x3c3bad6b	0.01145492
208	0x3c5d79c1	0.013517798
209	0xbb9ecc7e	-0.0048461547
210	0x3b0ff734	0.0021967413
211	0xbb827ba0	-0.0039820224
212	0x3c09aa93	0.0084024845
213	0xbbb6d80e	-0.005579955
214	0xbb757356	-0.0037452779
215	0x3babb94f	0.0052405964
216	0x3bbadedb	0.005702836
217	0x3bddabb1	0.006764852
218	0x3c1d4710	0.009599462
219	0x3c396728	0.011316098
220	0xba08ac87	-0.0005213697
221	0xba8c7a7d	-0.0010717657
222	0xbb6c6164	-0.0036068792
223	0x3befd29f	0.007318809
224	0x3b293987	0.0025821642
225	0x3c7f50ac	0.0155831985
226	0x3b7ab4fe	0.0038254852
227	0x3bb816b3	0.0056179403
228	0xbb006553	-0.0019591644
229	0x3a625a54	0.0008634676
230	0x3c299368	0.010350086
231	0xba097812	-0.0005244027
232	0xbba3efdc	-0.0050029587
233	0xbbba7224	-0.005689876
234	0x3b851e2a	0.0040624337
235	0x3b58ff4e	0.0033111158
236	0x3bd342aa	0.006447156
237	0x3b5c3f84	0.0033607194
238	0x38de9359	0.000106132306
239	0x3abc4e60	0.0014366619
240	0x3ba6203f	0.005069762
241	0x3c004b15	0.007830401
242	0x3abb2f48	0.0014281059
243	0xbc018547	-0.007905311
244	0xbba83ff6	-0.005134578
245	0xbaad7d41	-0.0013236181
246	0xbb58cc64	-0.003308081
247	0x3beea1c4	0.0072824676
248	0x3c5b349d	0.013379243
249	0x3c60a5ff	0.013711452
250	0x3cfcf975	0.03088067
251	0x3cd12fe3	0.02553553
252	0x3cba086f	0.0227091
253	0xbc8c6054	-0.017135777
254	0xbca45213	-0.020058667
255	0xbc4c0454	-0.012452204

bias f4 [10]
0	0x3bc6d22d	0.0060675354
1	0xbc8b1635	-0.016978363
2	0xbccce5cc	-0.02501192
3	0x3ce10b29	0.027471142
4	0x3ccf0416	0.025270503
5	0xbbb8ad4f	-0.0056358944
6	0x3c59a9e4	0.013285134
7	0x3ce46705	0.027881155
8	0x3b74d07f	0.0037355719
9	0xbca75c30	-0.0204297

weight f4 [10, 10, 11, 11]
0	0x8002f376	-2.71008e-40
1	0x00084086	7.5783e-40
2	0x0005425c	4.82983e-40
3	0x0009e12b	9.07295e-40
4	0x800a3c48	-9.3998e-40
5	0x00077eb1	6.88297e-40
6	0x0004e211	4.4844e-40
7	0x8008fced	-8.25417e-40
8	0x800155c4	-1.22602e-40
9	0x00096acc	8.64831e-40
10	0x80061174	-5.57274e-40
11	0x0008becd	8.0313e-40
12	0x000222aa	1.96106e-40
13	0x8003521e	-3.04965e-40
14	0x0005fc2d	5.49641e-40
15	0x00094a8a	8.53259e-40
16	0x0006f7d1	6.39913e-40
17	0x8002e0cc	-2.64313e-40
18	0x80082c01	-7.5047e-40
19	0x0000f577	8.8056e-41
20	0x8001a73b	-1.51826e-40
21	0x00084a77	7.61397e-40
22	0x80000acc	-3.873e-42
23	0x0002692f	2.21404e-40
24	0x800446a2	-3.9268e-40
25	0x8003d08e	-3.50322e-40
26	0x0002d8ba	2.61418e-40
27	0x80010b29	-9.5839e-41
28	0x0003cdec	3.49377e-40
29	0x0004fda0	4.58325e-40
30	0x80061f96	-5.62344e-40
31	0x80066f08	-5.90843e-40
32	0x00022ad9	1.99042e-40
33	0x0004754e	4.09423e-40
34	0x8001886a	-1.40772e-40
35	0x0008a79c	7.94811e-40
36	0x8005229f	-4.71597e-40
37	0x80064f96	-5.79563e-40
38	0x80029749	-2.37942e-40
39	0x8008c0ca	-8.03844e-40
40	0x00085753	7.6601e-40
41	0x8004dfda	-4.47645e-40
42	0x00097263	8.67554e-40
43	0x800646be	-5.7639e-40
44	0x000ad74b	9.95588e-40
45	0x00094466	8.51056e-40
46	0x8001126e	-9.8447e-41
47	0x80062809	-5.65375e-40
48	0x8000ba4b	-6.683e-41
49	0x00031bc0	2.85461e-40
50	0x000802f6	7.35746e-40
51	0x0008d3b2	8.10626e-40
52	0x0004fe56	4.5858e-40
53	0x00068c29	6.01293e-40
54	0x0006a8ae	6.11524e-40
55	0x8008464a	-7.59899e-40
56	0x0004a703	4.27255e-40
57	0x0009257d	8.39968e-40
58	0x80012dbd	-1.08243e-40
59	0x000749c8	6.69316e-40
60	0x00076f97	6.8288e-40
61	0x8008acf9	-7.96735e-40
62	0x0009af99	8.89512e-40
63	0x8007fc18	-7.33283e-40
64	0x8000d7e2	-7.7444e-41
65	0x800a4555	-9.43227e-40
66	0x80094bc1	-8.53695e-40
67	0x8000772d	-4.2752e-41
68	0x800ad3b5	-9.94301e-40
69	0x8005512d	-4.88298e-40
70	0x0006acbf	6.12983e-40
71	0x0006b936	6.17454e-40
72	0x800869e4	-7.7267e-40
73	0x00092078	8.38167e-40
74	0x000006ca	2.435e-42
75	0x800064bc	-3.6137e-41
76	0x8008caa3	-8.07376e-40
77	0x0006fae7	6.4102e-40
78	0x80042260	-3.79673e-40
79	0x80099a7e	-8.81941e-40
80	0x80071aef	-6.5251e-40
81	0x0003b9d8	3.42175e-40
82	0x80061d53	-5.61533e-40
83	0x0004d72a	4.44528e-40
84	0x0008b286	7.98726e-40
85	0x0008d2a6	8.1025e-40
86	0x0009049b	8.28172e-40
87	0x8007c68b	-7.14072e-40
88	0x0008f31c	8.21895e-40
89	0x8005fab2	-5.4911e-40
90	0x80076c69	-6.81739e-40
91	0x8008edcd	-8.19991e-40
92	0x80048e97	-4.18494e-40
93	0x8004cf94	-4.41807e-40
94	0x80054f19	-4.87552e-40
95	0x8005a12c	-5.16995e-40
96	0x000509e4	4.62726e-40
97	0x0000af19	6.2813e-41
98	0x8000bdf5	-6.8144e-41
99	0x0007a9ae	7.03718e-40
100	0x00048d42	4.18016e-40
101	0x80040a64	-3.7107e-40
102	0x00090fdf	8.32213e-40
103	0x0008efba	8.20682e-40
104	0x0002642f	2.1961e-40
105	0x00022994	1.98586e-40
106	0x00014b0b	1.18756e-40
107	0x0008f2f6	8.21842e-40
108	0x0000fab4	8.9935e-41
109	0x80037ff0	-3.21402e-40
110	0x8006e146	-6.31826e-40
111	0x8007b382	-7.07244e-40
112	0x800957cb	-8.58014e-40
113	0x000139fa	1.12634e-40
114	0x000792e8	6.95549e-40
115	0x80022cea	-1.99783e-40
116	0x80024f79	-2.1218e-40
117	0x00076996	6.80726e-40
118	0x0003d91c	3.5339e-40
119	0x0004c189	4.3677e-40
120	0x8002bfd0	-2.5248e-40
121	0x8007cd38	-7.16467e-40
122	0x8002bee2	-2.52147e-40
123	0x00087478	7.76465e-40
124	0x80017d0c	-1.36694e-40
125	0x174e0b56	6.65765e-25
126	0xb50261f1	-4.85713e-07
127	0xb07e6254	-9.2544394e-10
128	0x2c299e2d	2.410415e-12
129	0x91b6facb	-2.88691e-28
130	0x17c4f937	1.2729114e-24
131	0x99904733	-1.4918008e-23
132	0x2328638e	9.12838e-18
133	0xab94b4ca	-1.0566212e-12
134	0xaf528c8d	-1.9149322e-10
135	0x2d0c39e3	7.970932e-12
136	0x3194352a	4.313411e-09
137	0xb70343bb	-7.823978e-06
138	0xb58aab81	-1.0331715e-06
139	0x35b9df92	1.3848642e-06
140	0xb4034497	-1.2225279e-07
141	0xb1512b21	-3.0438019e-09
142	0xb1cb18fa	-5.910917e-09
143	0x00076b5c	6.81362e-40
144	0x8007d497	-7.19111e-40
145	0x800323a6	-2.88295e-40
146	0x0007aba5	7.04423e-40
147	0xa587b8a0	-2.3543874e-16
148	0xb58ceca8	-1.0499689e-06
149	0xb382cf38	-6.0912896e-08
150	0x3243aa50	1.13892185e-08
151	0xad65674d	-1.304008e-11
152	0xa6b43237	-1.250362e-15
153	0xa3000c62	-6.941516e-18
154	0x2f16cc44	1.371499e-10
155	0x348273bd	2.4298598e-07
156	0xb4b61950	-3.391856e-07
157	0xb43acb9e	-1.7396675e-07
158	0xb5939517	-1.0995744e-06
159	0x3776d185	1.4711525e-05
160	0x36c17ff8	5.7667457e-06
161	0x37a01c72	1.9086732e-05
162	0xb5fedf0d	-1.8989391e-06
163	0x3325cda6	3.8604092e-08
164	0xb4be1db6	-3.5411875e-07
165	0xbbfaea16	-0.0076572997
166	0xbc033a42	-0.008009495
167	0xbb45690a	-0.0030122423
168	0x3a0820aa	0.00051928556
169	0xbc240738	-0.010011487
170	0xbb05129a	-0.0020305277
171	0xbbd1c185	-0.006401243
172	0xbb573798	-0.0032839533
173	0xbb864dee	-0.0040986454
174	0xbc1e7dd3	-0.0096735535
175	0x3ae03b84	0.0017107581
176	0xbb5f76bb	-0.0034097868
177	0xbb8d4189	-0.004310791
178	0xbb96909c	-0.0045948755
179	0x3b9efaed	0.00485169
180	0xbb9c2239	-0.004764822
181	0x3b200c57	0.0024421418
182	0xbb8f9f64	-0.0043830145
183	0x3ae57169	0.0017505112
184	0xbb591436	-0.003312362
185	0xbb8f9354	-0.0043815766
186	0xba95915f	-0.0011411122
187	0xa7e5333b	-6.3615812e-15
188	0xa70468a7	-1.8375412e-15
189	0xa699b240	-1.0664822e-15
190	0x259a9724	2.6817158e-16
191	0x9c534f87	-6.991683e-22
192	0x33d32d41	9.833685e-08
193	0x2f26f794	1.518557e-10
194	0xa314a018	-8.056997e-18
195	0x8005af44	-5.22051e-40
196	0x80022026	-1.95204e-40
197	0x915215aa	-1.6572755e-28
198	0xa9885ceb	-6.055732e-14
199	0x2a0a72c8	1.2296685e-13
200	0xa11ed098	-5.3808554e-19
201	0xa74ef219	-2.8719484e-15
202	0xad170cdf	-8.586214e-12
203	0x3643d9cd	2.918404e-06
204	0x3198b31a	4.4441437e-09
205	0xab0e7656	-5.061276e-13
206	0x2153ed41	7.1803584e-19
207	0xa55b6e59	-1.9032609e-16
208	0x29dd8815	9.837978e-14
209	0x397ab675	0.00023909828
210	0x3a51232c	0.00079779583
211	0xb8f6a34e	-0.00011760612
212	0xb91d31c5	-0.00014991227
213	0x39db716d	0.00041855444
214	0x36a60bd7	4.948564e-06
215	0x3937a59f	0.00017513939
216	0x39db15d0	0.00041787187
217	0xba3456f9	-0.0006879415
218	0x3829616a	4.0383464e-05
219	0x39ee5b35	0.00045462852
220	0xb50a60b9	-5.1549756e-07
221	0x3356ef5b	5.004345e-08
222	0xb20bdc3f	-8.140943e-09
223	0xb319196e	-3.5646217e-08
224	0xb509a19f	-5.1271667e-07
225	0x37d1c1a2	2.5004909e-05
226	0x330c238d	3.2628623e-08
227	0x3387fbe6	6.3322474e-08
228	0xae2bd615	-3.907104e-11
229	0xaa894118	-2.4381257e-13
230	0xad7227a1	-1.3764907e-11
231	0xae1f3474	-3.6199002e-11
232	0xa98523ed	-5.9126186e-14
233	0x24e37270	9.863942e-17
234	0xae8241e9	-5.9234236e-11
235	0x313c3697	2.7388631e-09
236	0xb76f8257	-1.4275857e-05
237	0xb3f326c2	-1.1322619e-07
238	0x3154c664	3.0962832e-09
239	0x9e9411a3	-1.5677404e-20
240	0x911a11e3	-1.215397e-28
241	0x23222815	8.790525e-18
242	0x3b2e885b	0.0026631567
243	0xbae6cf47	-0.0017609381
244	0xb9156baf	-0.00014249863
245	0xbb6b6c97	-0.003592288
246	0x389965b0	7.314549e-05
247	0x3a2b6284	0.00065378123
248	0xbba1d2fe	-0.0049384823
249	0xbbb660bb	-0.0055657304
250	0x3c5df6a1	0.01354757
251	0x37b9a0fa	2.212868e-05
252	0x3b3a6994	0.0028444277
253	0x3b8278a5	0.003981667
254	0x3a886aa9	0.0010407764
255	0x3a0ce9c1	0.0005375408

bias f4 [10]
0	0xbbf7b6da	-0.0075596394
1	0xbc669a69	-0.0140749
2	0x3ad2fc6a	0.0016096954
3	0x3be054ba	0.0068460377
4	0x3add58b4	0.0016887398
5	0xbb98bd1a	-0.0046612145
6	0x3c866861	0.016407194
7	0xbcc7959d	-0.024363333
8	0xbc4fb22d	-0.012676758
9	0x3c529759	0.012853467

weight f4 [1, 10, 6, 6]
0	0xbd0ef8e0	-0.034905314
1	0x3d40e47c	0.0470929
2	0x3b24becc	0.0025138138
3	0xbc263010	-0.010143295
4	0x3cb9ef10	0.022697002
5	0x3cc073e4	0.023492761
6	0xbbfebcd1	-0.0077739735
7	0x3d35c463	0.044376742
8	0xbace1e7d	-0.0015725639
9	0xbcc455e4	-0.023966737
10	0xbd43ed02	-0.04783345
11	0xbb55e4e5	-0.0032637652
12	0xbd1139d4	-0.03545554
13	0xbd3e08d1	-0.046395127
14	0xbc032e66	-0.008006668
15	0xbc307e9d	-0.010772374
16	0xbc4bfeee	-0.012450917
17	0x3c930bb8	0.017949924
18	0xbc2f4c6d	-0.010699374
19	0xbc419f58	-0.011817776
20	0x3be58ca7	0.0070052925
21	0x3d014b88	0.031566173
22	0xbc34c93a	-0.011034304
23	0xbd084666	-0.033270262
24	0x3caa5b4b	0.020795485
25	0x3d517f41	0.05114675
26	0xbcee7e28	-0.02911289
27	0x3cfffee4	0.031249471
28	0xbca51a91	-0.02015427
29	0xbd417540	-0.04723096
30	0x3847dae9	4.7649173e-05
31	0xbd1bba33	-0.03801937
32	0xbc24f3d0	-0.010067895
33	0xbd1d3c81	-0.03838778
34	0xbcfa4b12	-0.030553374
35	0xbd419cf4	-0.047268823
36	0xbb945795	-0.004527042
37	0x3bb2bd8a	0.0054547237
38	0x3c891695	0.0167344
39	0x3d2a332f	0.04155272
40	0xbc3787f9	-0.011201852
41	0x3d4c2f55	0.049849827
42	0x3d21a07d	0.039459694
43	0xbc8fa768	-0.01753588
44	0xbd0330b2	-0.03202886
45	0xbcfaf5f1	-0.030634852
46	0xbc63a233	-0.013893652
47	0x3d3f0eea	0.046645083
48	0x3d04f71d	0.032462228
49	0xbd4aa413	-0.04947288
50	0x3d17f92d	0.037102867
51	0x3d5e98f7	0.054345097
52	0x3d53a8d6	0.051674686
53	0x3bd11771	0.0063809683
54	0x3cfdb263	0.03096885
55	0xba8c2e92	-0.0010695031
56	0x3d604e12	0.054761954
57	0xbcdefa8b	-0.027219078
58	0xbd45a704	-0.04825498
59	0xbc270729	-0.010194578
60	0x3cf79e56	0.030226868
61	0xbd244d0e	-0.040112548
62	0x3d3b636a	0.045749106
63	0xbc36a88c	-0.011148583
64	0x3d23033a	0.039798
65	0x3c40323d	0.011730728
66	0xbd203910	-0.03911692
67	0xbb004ac4	-0.0019575814
68	0xbcde082d	-0.027103508
69	0x3d5d319e	0.054002397
70	0x3d280f7f	0.041030403
71	0xbd3c2c1e	-0.04594051
72	0x3bd1ddc0	0.0064046085
73	0x3c8b8776	0.017032366
74	0xbcaa910d	-0.020821119
75	0x3cd41f94	0.025893964
76	0x3c1eeddd	0.009700266
77	0xbd385816	-0.04500588
78	0x3c0da1bc	0.0086445175
79	0x3d3dc220	0.04632771
80	0x3d02268a	0.031775035
81	0x3b948e9d	0.0045336024
82	0xbc1fe58f	-0.009759321
83	0x3c95e1a3	0.018296069
84	0x3b9b70fe	0.0047436943
85	0x3d56e96d	0.052468706
86	0x3d796ed6	0.060896717
87	0x3cae1e54	0.021254696
88	0xbc7e53d3	-0.015522915
89	0x3d47556a	0.04866544
90	0x3d8589e3	0.065204404
91	0x3c2b1991	0.010443107
92	0x3d42fc95	0.047604162
93	0xbc5256e3	-0.012838098
94	0x3ce73923	0.028225487
95	0xbd280d6c	-0.041028425
96	0xbcf46b5b	-0.029836347
97	0xbbcb2308	-0.0061992444
98	0x3d8001e8	0.062503636
99	0xbb692330	-0.0035573952
100	0xbc89dee5	-0.016829917
101	0x3cf5c61f	0.030001698
102	0x3c00b858	0.007856451
103	0x3d4f311c	0.050583944
104	0x3d32c06b	0.043640535
105	0x3c59f743	0.013303581
106	0x3cc75dda	0.024336744
107	0xbd2ad670	-0.04170841
108	0xbce4acc6	-0.027914416
109	0x3d59ede3	0.053205382
110	0x3d30a15f	0.043122645
111	0x3a2ea640	0.00066623464
112	0x3d37879d	0.044807065
113	0xbcbf39a8	-0.023342922
114	0xbd118dd7	-0.03553566
115	0x3c233ae3	0.00996277
116	0xbbc61add	-0.006045683
117	0xbc672c7a	-0.014109725
118	0x3cff7b03	0.031186586
119	0x3c9ff888	0.019527689
120	0xbc82564f	-0.015910296
121	0xbc4e5381	-0.012593151
122	0x3c93f297	0.018060012
123	0x3c37cd95	0.011218448
124	0x3b015d59	0.0019739477
125	0xbd0be5b1	-0.034154598
126	0x3cfbcfb8	0.030738696
127	0xbd20a576	-0.039220296
128	0x3d52815b	0.051392894
129	0x3d42654d	0.04745989
130	0xbca45dc2	-0.020064238
131	0xbd0b8dac	-0.034070656
132	0xbac7de73	-0.001524879
133	0xbc5dc86b	-0.013536553
134	0x3bf2e233	0.007412219
135	0xbd1d7f24	-0.03845133
136	0xbc582bc9	-0.013194033
137	0x3d5d0362	0.053958304
138	0xbd09712a	-0.033555187
139	0x3d2bb5cf	0.041921433
140	0xbd3bf796	-0.045890413
141	0xbca2c339	-0.01986848
142	0xbd35d33a	-0.044390894
143	0xbc5dc11d	-0.013534811
144	0x3d541ac1	0.051783327
145	0x3d24c750	0.04022914
146	0x3d37f729	0.044913445
147	0x3bb01777	0.005373891
148	0x3d1575e5	0.036489386
149	0xbcb7e081	-0.022445919
150	0xbd253a4a	-0.040338792
151	0x3ca219cc	0.019787692
152	0xbd1e5f8a	-0.038665332
153	0xbb0fe393	-0.0021955713
154	0x3d5158a9	0.051109944
155	0x3d165e96	0.036711298
156	0xbce566a2	-0.02800304
157	0xbd2f1622	-0.042745717
158	0x3c21b45c	0.009869661
159	0xbc73ce28	-0.014880694
160	0x3d33a9ce	0.04386311
161	0xbb9a72b1	-0.0047133793
162	0x3c5de457	0.01354321
163	0xbc2b0f44	-0.010440651
164	0x3d3b00c1	0.045655016
165	0x3c6d8e06	0.014499193
166	0xbc0db852	-0.008649902
167	0x3c5e5f4f	0.013572528
168	0xbcd5821f	-0.026063023
169	0x3d17d350	0.037066758
170	0xbc9c2411	-0.019060167
171	0x3d1bee06	0.038068794
172	0x3d353b61	0.04424608
173	0x3d3d52c6	0.046221517
174	0x3d67fa29	0.056635056
175	0x3d2681af	0.04065102
176	0xbc506183	-0.012718561
177	0x3cde15bb	0.027109971
178	0xbd0bee45	-0.03416278
179	0x3d3ffd5b	0.046872478
180	0xbd00138a	-0.031268634
181	0xbcccca77	-0.024998887
182	0xbba24ec4	-0.0049532373
183	0x3ce33558	0.027735397
184	0xbcd0708a	-0.025444288
185	0x3cd4a07c	0.025955431
186	0x3cb8c558	0.022555038
187	0x3ce2d1e9	0.027687984
188	0xbd06d51e	-0.03291809
189	0xbb97e14b	-0.0046350113
190	0xbc428fa2	-0.011875065
191	0x3d0c5740	0.034262896
192	0xbcb1e6ee	-0.021716561
193	0xbce6ef82	-0.028190378
194	0xbd03143c	-0.03200172
195	0xbc905227	-0.017617298
196	0x3d184ed1	0.03718454
197	0x3d293a84	0.04131557
198	0xb9b218c5	-0.0003396926
199	0xbcafcf50	-0.021461159
200	0x3bb2fbdd	0.0054621533
201	0x3cb692e5	0.022286842
202	0xbcfcae03	-0.030844694
203	0x3b2c3a24	0.0026279772
204	0xbc36831c	-0.011139657
205	0xbcdf26fc	-0.027240269
206	0x3cc02d45	0.023459086
207	0xbce4edbf	-0.027945397
208	0x3cf50121	0.029907765
209	0xbbf0b8f5	-0.0073462673
210	0xbc6f8760	-0.014619678
211	0xbd19a152	-0.037507363
212	0xbc1a3dfa	-0.00941419
213	0xbcf57dfd	-0.029967302
214	0xbcac02e5	-0.020997474
215	0xbd0b249d	-0.033970464
216	0xbd36cf7a	-0.04463146
217	0xbd04ceb7	-0.0324237
218	0x3c3170c9	0.010830113
219	0x3d0d00e8	0.034424692
220	0xbc644069	-0.013931372
221	0x3d0308cb	0.031990808
222	0xbd0c3e95	-0.03423937
223	0x397c2156	0.00024045011
224	0x3d12f273	0.03587575
225	0xbd189a3b	-0.03725646
226	0xbd11a7b7	-0.035560336
227	0xbceabd44	-0.028654702
228	0xbcd53d93	-0.026030337
229	0x3d317d2c	0.043332264
230	0xbbfae37b	-0.0076565123
231	0x3c8ab0e4	0.016930051
232	0xbd2d3c84	-0.04229404
233	0x3c9ea897	0.0193675
234	0xbcab4e9d	-0.02091151
235	0x3d114cb4	0.03547354
236	0xbc7d3398	-0.015454195
237	0xbb38c4f2	-0.002819356
238	0xbb4a1049	-0.003083246
239	0xba60c158	-0.00085737323
240	0xbc3b12a3	-0.011418018
241	0x3bd92f73	0.006627971
242	0x3d2ae1ee	0.04171937
243	0x39d2b82e	0.00040191546
244	0xbcdf008c	-0.02722194
245	0xbb9fa736	-0.004872228
246	0xbc9ee9e1	-0.019398632
247	0xbbb5c08f	-0.0055466364
248	0x3d442e60	0.04789579
249	0xbd3f0473	-0.046635102
250	0xbbec4fd4	-0.0072116647
251	0xbcc8aa24	-0.024495192
252	0x3d42d850	0.047569573
253	0x3c91d97e	0.017803904
254	0x3ca3c0e0	0.01998943
255	0x3b4e2a90	0.0031458475
